ml_module/models/lstm_model.pt (torch, 219381 bytes, 9 tensors)

lstm.weight_ih_l0 f4 [256, 14]
000000 81 2d e3 3d de 7a a1 3d 6a 58 65 bb f4 08 0f 3d
       0.110926636 0.07884763 -0.0034995326 0.034920648
000010 c5 f1 e2 3c bc 1c cf 3d 01 e1 70 bd 84 a9 12 3e
       0.027703175 0.101129025 -0.05880833 0.14322478
000020 3d e9 98 bd d2 9a 6e 3d 9a a1 14 3e 78 1c 1c 3e
       -0.07466362 0.058253117 0.14514771 0.15245235
000030 4a 0b 26 3d 0f b6 bd 3c 74 9b e7 3d c0 01 60 bd
       0.04053811 0.023158101 0.11308947 -0.05468917
000040 73 38 13 3e ac 06 12 3e 59 90 1c 3e a0 af b5 bc
       0.14377002 0.14260358 0.1528944 -0.022178471
000050 5c e2 92 bd ee e9 7b bd 4d 77 18 bd be 87 8e 3d
       -0.07172081 -0.06150239 -0.03722315 0.069594845
000060 00 65 fb bb aa a8 0d 3d 90 cc 0d 3d f5 8d bd bc
       -0.0076719522 0.03458468 0.034618914 -0.02313898
000070 36 3e 08 3e 36 39 81 bc 37 51 f5 bc 53 77 d3 3d
       0.13304982 -0.01577435 -0.029945953 0.10325494
000080 76 f9 cd 3d 2f 5c 8a bd 9a c7 9f bd a7 ce ce 3d
       0.100573465 -0.06755864 -0.07801743 0.100980096
000090 d1 9a 11 3e 24 c2 00 bd bb 48 04 3e f7 b2 f6 3d
       0.14219214 -0.031435147 0.1291837 0.120458536
0000a0 66 5e be 3c c5 a4 46 3d 9e c0 0c 3d 05 88 03 3e
       0.023238372 0.04849698 0.03436338 0.12844856
0000b0 aa 32 73 bd dc 53 7e 3d 38 0c 81 3d 63 56 03 3e
       -0.05937449 0.062091693 0.06301159 0.12825923
0000c0 0d 4c 25 3c 65 13 cb bc d0 6a da bb 76 c6 50 3d
       0.010088933 -0.024789521 -0.006665565 0.050970517
0000d0 51 53 eb bc 02 73 3d bd 14 62 89 3d 46 44 de bc
       -0.028726252 -0.046252258 0.0670816 -0.027132165
0000e0 53 7c 3e 3d b1 d5 4d 3b 46 55 10 3e 4d 22 3c bd
       0.046505284 0.0031407888 0.14095029 -0.04593115
0000f0 53 c8 19 3e b6 0d 8f bd 53 cb 0f be 9d fc 3f bd
       0.15017824 -0.06985037 -0.14042406 -0.04687177
000100 a5 78 9c bd 40 84 b1 bd f1 ce fd 3c 87 69 18 3e
       -0.076401986 -0.08667803 0.030982466 0.14884005
000110 e7 b2 84 3d 5c ac b8 3d c9 b6 e1 3d dc 8e b2 bd
       0.064794354 0.0901725 0.110211916 -0.087186545
000120 21 0a ad 3c 7a 1a 97 3d d3 16 8e bd 88 2b 41 bd
       0.021122994 0.07378097 -0.06937947 -0.047160655
000130 3c 45 c9 3d 3c b0 5a 3c 38 12 8c 3d b9 76 c2 bd
       0.098276585 0.013347682 0.068394125 -0.09495301
000140 d2 01 f1 3d ee c0 99 3d a0 10 75 bd f0 d2 65 3d
       0.11767925 0.075075015 -0.059830308 0.05610937
000150 c3 ff fc 3d 2c 95 e0 3c ae 31 3b bd 87 e5 a3 bb
       0.1235347 0.02741488 -0.045701675 -0.005001727
000160 f0 13 f1 3d fc 63 9b 3c c5 65 0e be fc f4 3e bd
       0.11771381 0.018968575 -0.1390601 -0.046620354
000170 7f e9 fd bc 58 6d 59 bd 9c 8b 46 bd 38 2e 91 bd
       -0.030995129 -0.053082794 -0.048472986 -0.07088894
000180 88 25 cf 3d 10 06 74 bc e3 f5 3f 3d af 57 c6 3d
       0.101145804 -0.014894024 0.046865355 0.09684693
000190 69 d5 a2 3d c0 aa 46 3d 6b d2 4a bd f3 3f 38 bd
       0.07950861 0.048502684 -0.049517076 -0.04498286
0001a0 5a c6 2a bd d4 67 9e ba da 7d 36 bd 4b b5 3c 3d
       -0.04169307 -0.0012085387 -0.044553615 0.046071332
0001b0 09 5a 09 bb 6d 65 70 bc a0 c3 b3 3d 7b d5 c8 bd
       -0.0020958206 -0.014672619 0.08777547 -0.09806343
0001c0 ea 58 cc 3d d3 de d4 bc 1e e9 15 3e cb f0 af bd
       0.099778965 -0.025985157 0.14639708 -0.085908495
0001d0 7d 39 81 3d 3f b0 a3 bd cb 60 5c 3b 4b 84 aa 3d
       0.06309793 -0.07992601 0.003362703 0.08326014
0001e0 6c cb 00 3e e3 05 87 bc 67 f2 6a bd 89 a4 e2 bc
       0.125776 -0.0164823 -0.05736008 -0.027666347
0001f0 04 22 5d 3c 1d a4 be bd 74 dc ef bc 19 3e a2 bd
       0.0134968795 -0.09308646 -0.029279925 -0.079220004
000200 a1 59 a7 3b 05 0a b4 bd 62 08 02 be 60 35 cc bd
       0.00510712 -0.087909736 -0.1269851 -0.09971118
000210 93 84 3d bd 4b 0c dd bc ff de 8c 3c 86 08 dd 3d
       -0.04626901 -0.0269834 0.017196177 0.10792641
000220 22 8e 64 3d 3f 8f a4 3c 57 41 0d 3d 79 4c d6 bd
       0.05579961 0.020087836 0.03448614 -0.10463805
000230 62 83 cb bc ac a7 9f bd b3 e9 17 3e d0 63 46 bd
       -0.024842922 -0.07795653 0.14835243 -0.048435032
000240 b0 c6 9a bc 88 07 c9 bc 07 c3 ba bd 25 45 8e 3d
       -0.01889357 -0.024539724 -0.0911923 0.06946782
000250 76 9a b0 bd cb 08 97 bc f1 1c 7b 3d b1 df 49 3c
       -0.08623211 -0.01843681 0.061306898 0.012321399
000260 a2 72 b0 3d 78 13 97 bc 75 01 97 bd 74 a4 64 bd
       0.086156145 -0.0184419 -0.07373325 -0.055820897
000270 34 01 0c 3e 40 4a c9 bc 88 7a 0f 3e 36 4f 70 3c
       0.13672334 -0.024571538 0.14011586 0.014667323
000280 91 08 00 3e a1 2a ae bd 13 1d 05 3e cc fd a0 3d
       0.12503268 -0.085042246 0.12999372 0.07860908
000290 93 1e a3 3b 21 28 09 3e 3a ed 8e 3d 4d 39 d9 bc
       0.00497801 0.13394214 0.06978841 -0.026516581
0002a0 0f 50 34 3d 73 dc 77 3c aa 1d 64 bd b6 cd 62 bd
       0.044021662 0.015128243 -0.055692352 -0.055371962
0002b0 6c 22 88 3b 93 8f 73 3d 5f 81 27 bd 79 31 e7 3b
       0.004154494 0.059463095 -0.040894862 0.007055458
0002c0 c9 1b ee bc 34 7a f9 3d 3d 9b b1 3d 97 e1 05 3d
       -0.029065983 0.121815115 0.086721875 0.032685842
0002d0 d9 69 88 bd cc 97 e7 bd 27 d5 60 bd 0a 6d 8f 3d
       -0.06660814 -0.1130825 -0.054890778 0.070032194
0002e0 df c7 09 3e 32 71 9c 3d a7 9c 70 bd 38 9d 8a bc
       0.13455151 0.07638778 -0.058743145 -0.01692067
0002f0 f6 84 d4 3c 6c 12 dd 3d ba 57 8d 3d 1b b5 82 bd
       0.025942307 0.10794529 0.06901498 -0.063821994
000300 11 02 3b bc c1 bc d4 bc 71 2d bf 3b aa c0 b5 bd
       -0.011414067 -0.025968911 0.0058342745 -0.088746384
000310 be e4 c0 bd 03 f0 3b bd 21 1d 35 bd c9 82 c4 bc
       -0.09418629 -0.04588319 -0.044217233 -0.023988144
000320 0e c4 f8 3b 23 45 20 3d 5e 23 07 bd 0a 0f 1c 3e
       0.007591731 0.039128434 -0.032992713 0.15240112
000330 0a 51 0a 3e 4d 3f a1 bd 3b 9f 43 3d c9 2f 7c bd
       0.13507476 -0.07873402 0.047759276 -0.06156901
000340 75 8a 80 bb 17 8f 41 3d a1 57 a2 bd 79 dc f8 bd
       -0.0039227554 0.0472556 -0.0792687 -0.12151427
000350 bb 7a 51 3d 25 79 dd 3b 4f 56 a1 bd 39 5d 43 3d
       0.051142436 0.0067588263 -0.0787779 0.047696326
000360 0c c3 03 ba ed f5 af bd 29 48 1a bd 3b 5e 03 bd
       -0.00050263177 -0.085918285 -0.037666474 -0.032072287
000370 ed fc b7 3d 78 f6 48 bd 02 8f 4c bd 1b 41 44 3c
       0.08983789 -0.049063176 -0.04994107 0.011978413
000380 35 df df 3d bd c6 80 bc e5 43 86 3d 9b 27 97 3c
       0.10931245 -0.015719766 0.065559186 0.018451503
000390 0d 31 fb 3d f2 0b 03 3e 07 34 9a bd fc 03 94 3d
       0.12265215 0.12797526 -0.07529455 0.072273225
0003a0 df a0 15 3e 99 9c cb bd 27 ba 3a 3d ab 64 de 3c
       0.14612149 -0.09941978 0.045587685 0.027147612
0003b0 e5 79 31 3d d2 29 13 3e 66 d2 9a 3c f1 22 05 3e
       0.04332914 0.14371422 0.018899154 0.1300161
0003c0 2a ff 44 bd db 82 d7 3d aa e2 67 3d 5d c0 15 3e
       -0.048094906 0.105230056 0.056612648 0.14624162
0003d0 73 be db bd 1c f2 5e 3d 2c 25 84 bc 95 f5 98 bd
       -0.10729685 0.054430112 -0.016131006 -0.07468716
0003e0 1b c6 1d 3d 51 58 6f 3d 8d 6e 17 bd fa 29 14 3d
       0.038519006 0.058433834 -0.036970664 0.036172844
0003f0 be d9 78 3d a1 3e 19 3e e9 be fc bc 82 3b 8d bd
       0.06075453 0.14965297 -0.030852752 -0.06896116

lstm.weight_hh_l0 f4 [256, 64]
000000 41 0a 9e 3d 2c cc a3 3d 41 30 0a be 72 ab 9a bd
       0.077167995 0.07997927 -0.1349497 -0.07552232
000010 20 33 dd 3d 8d cf 12 3e bd 4b 40 3d 50 31 cf bd
       0.10800767 0.14336987 0.04694723 -0.101168275
000020 3f b3 96 bc 80 bc 2d bd 63 73 c6 bc 13 e1 12 3d
       -0.018396018 -0.042416096 -0.024224943 0.03585918
000030 d0 7d c1 bd ba 32 e7 bd 35 a1 a2 bd 51 b9 84 3d
       -0.09447825 -0.11288972 -0.07940904 0.06480659
000040 6f 95 fd bd 91 2d 65 bd 56 48 be 3d d0 f3 a5 3d
       -0.12382018 -0.05595166 0.09291141 0.08103144
000050 a7 5e 8f 3c 3b 93 0b bc f5 bc 29 3d b6 b6 b0 bc
       0.017501188 -0.008518989 0.04143997 -0.021571498
000060 a0 84 e5 bd cf f3 db bd 9f e8 77 bd 29 5c cc 3a
       -0.11206937 -0.10739862 -0.06052458 0.0015591431
000070 6c 9a 36 bd c0 37 b7 3b 37 e3 14 be 4c 07 3c 3c
       -0.044580862 0.0055913627 -0.145398 0.011476349
000080 b3 83 cb bc a2 f1 3a 3d 72 50 1b bd d0 d9 e6 3d
       -0.024843073 0.045640595 -0.037918516 0.11272013
000090 98 45 bf bc 78 70 94 3d 06 ed 03 3c 10 80 b2 bd
       -0.023348615 0.07248014 0.008052116 -0.08715832
0000a0 8f e5 43 3c 6e d4 9f bd f1 60 9b bd e2 b7 1f bd
       0.0119565865 -0.078041896 -0.075868495 -0.038993724
0000b0 fd 45 4c 3d 05 ff f6 3c b6 df ea bc db 45 70 3c
       0.049871434 0.0301509 -0.028671127 0.014665092
0000c0 fb a4 fd bb ff d6 e4 bd df f5 7d 3d e8 3c 2e 3d
       -0.0077406145 -0.1117382 0.06200206 0.042538553
0000d0 06 dc 51 bd 89 13 9a 3c 0b 00 9b 3d cf a9 6e bd
       -0.05123522 0.018808143 0.075683676 -0.05826741
0000e0 63 fa cf 3c 1f 5a 90 3c 2b b6 00 3e 68 10 19 bd
       0.025387948 0.017621098 0.12569492 -0.03736916
0000f0 32 a9 b9 3d 58 36 c0 bd 8d d1 04 bd a7 cb f7 bc
       0.090654746 -0.09385365 -0.032426406 -0.030248476
000100 c4 7c e7 bd 67 f2 0e 3e 9b 62 90 bd b0 1a c8 bd
       -0.11303094 0.13959657 -0.070500575 -0.09770715
000110 ef c0 f5 3d 5a 0d 29 3d 24 73 04 3e 06 5b 44 bd
       0.1199969 0.0412725 0.12934548 -0.04793837
000120 ff cb 24 be ae 51 ce 3a 10 3d 0a 3d e1 73 a7 bc
       -0.16093443 0.0015740895 0.03374964 -0.020440998
000130 41 60 0d 3c 02 f8 79 bd 2d a2 95 bc 66 43 b2 bd
       0.008628906 -0.061027534 -0.018265808 -0.087042615
000140 a5 7f 8a bd f3 1d 98 bb ce 4f 66 3d 54 46 3b bd
       -0.067626275 -0.004642242 0.05622845 -0.045721367
000150 2f 52 7d 3d d1 87 98 3d 14 d3 e1 3d cc bb 9a 3d
       0.061845955 0.0744778 0.11026588 0.07555351
000160 63 ba cb bd 1c ad 9e bd b5 d4 50 3c fb 5a 8a bc
       -0.0994766 -0.07747862 0.012746026 -0.016889086
000170 13 52 65 3d a5 ed 10 be 23 63 55 3d 1a b5 ae 3d
       0.055986475 -0.14153154 0.052096497 0.08530636
000180 a2 29 81 bd 67 bd 50 bd 6c f7 19 bd 5b 51 1c 3e
       -0.06306769 -0.05096188 -0.037589476 0.1526541
000190 56 7f 1c be 7c 05 2b be fa b5 3b ba 2a 5c 78 bd
       -0.1528295 -0.16701311 -0.00071606005 -0.06063477
0001a0 30 9d bb bd b2 56 46 3d 2b f5 9f 3c 33 85 06 bd
       -0.091608405 0.048422523 0.019526085 -0.032841872
0001b0 4e 0a b5 bd 6d 1c 69 bd 08 50 1d 3e ef 5c 85 bd
       -0.08839856 -0.056911875 0.15362561 -0.06511866
0001c0 f6 76 aa 3d 8f 8f c7 bc 06 3e fb 3d e3 96 c8 3d
       0.08323471 -0.024360446 0.122676894 0.09794404
0001d0 8f 30 a9 3d 1d 5c 39 bd e3 55 28 bb 16 98 6b bc
       0.08261215 -0.04525386 -0.0025685958 -0.014379522
0001e0 64 9c a3 bc 3e 9e 4c bc 64 6c 90 3d 9a 6c cb 3d
       -0.019972034 -0.0124889 0.07051924 0.099328235
0001f0 98 d9 8c bd 95 4e ba bc d8 d7 ac 3c 59 4a e4 bd
       -0.0687744 -0.022742549 0.021099016 -0.11146993
000200 51 5f 3d bd 3f c6 8f bd 0d bd 9e 3d e1 bb a2 bc
       -0.04623348 -0.07020234 0.07750902 -0.019864978
000210 95 f8 12 bc d7 f1 fe 3d c5 67 ab bd 23 07 50 bd
       -0.008970399 0.12448471 -0.08369402 -0.050788056
000220 6a 55 8d bd 40 1d f3 bb 85 97 d6 3d a2 9c 81 bd
       -0.06901057 -0.0074192584 0.10478119 -0.063287035
000230 f0 e8 54 3c ac bd 14 be 94 b3 07 3e db 32 fb 3d
       0.01299499 -0.14525479 0.13252097 0.12265559
000240 85 58 5e 3d 8a 5f e5 3c a6 37 ee 3d 96 b5 ba bd
       0.054283638 0.027999658 0.11631708 -0.09116666
000250 41 e0 b1 bd 74 d7 b1 bd 3d f6 12 3e ec 93 1a be
       -0.08685351 -0.086836725 0.14351745 -0.1509549
000260 5b 4a ba ba 15 40 a5 bd af 48 c2 bc 54 a7 f0 3d
       -0.0014212833 -0.08068863 -0.023716299 0.11750665
000270 c1 5f a6 bd 83 69 2e bd 20 a1 02 3d 44 73 8e 3c
       -0.08123732 -0.042581093 0.031891942 0.017388947
000280 3b 5a 43 bd fc ce 08 bd d2 39 99 3d 71 d4 13 3e
       -0.047693472 -0.03340052 0.074817315 0.14436509
000290 25 6f 86 3d c7 be 97 bd bc ad d5 3c f3 cf 98 3d
       0.06564168 -0.07409435 0.02608382 0.07461538
0002a0 0e 15 c6 bd 67 93 41 bc fa f4 38 bd 89 37 2e bd
       -0.096719846 -0.011814929 -0.045155503 -0.04253343
0002b0 c8 d7 4e bd 34 50 86 3d 96 23 84 bd 62 5e 01 3d
       -0.050498754 0.06558266 -0.064521 0.03158415
0002c0 b2 a1 12 3d a7 96 00 bd c2 cc 0a 3d 93 b7 9b 3c
       0.035798736 -0.031393673 0.03388668 0.019008433
0002d0 e4 46 53 3d e5 f6 a1 3d 8a 33 bf 3d 87 6b 8c bd
       0.05158128 0.079084195 0.09336002 -0.06856447
0002e0 06 07 4b bd a7 4f 9f 3d 38 c2 fe 3d 4c 7d 0e 3d
       -0.049567245 0.07778864 0.12439388 0.03478746
0002f0 f8 6d fe bd 75 01 44 3b 48 61 11 3e 7b 8c c0 bd
       -0.124233186 0.0029908095 0.14197266 -0.094017945
000300 f1 61 92 bd 4a 22 d7 3d 1b 27 8f bd b5 29 0c 3d
       -0.07147587 0.10504587 -0.06989881 0.034219462
000310 9a 53 d4 bb a4 e1 d7 bb 40 40 cf bd 8d cc a3 3d
       -0.0064796926 -0.0065881778 -0.101196766 0.07997999
000320 0d a6 c2 bd ff ed fa 3a 48 dc 46 bd 63 fa e4 bc
       -0.09504328 0.0019144415 -0.04854992 -0.027951425
000330 c2 20 01 3d 0b c6 db bd 20 3a 69 bd 78 57 f3 3d
       0.03152538 -0.10731133 -0.056940198 0.11881918
000340 1d 6b b1 bc 0b 40 0b 3d f7 75 3f bc 65 a0 22 3d
       -0.02165752 0.033996623 -0.01168584 0.039703745
000350 1f 11 b5 bd 7f 2d 1b 3c 70 94 cc bd 3b c1 90 3d
       -0.08841156 0.009471296 -0.0998925 0.07068106
000360 44 01 a0 3d 33 bd bb 3c f6 3d d0 3d 27 01 0f 3e
       0.078127414 0.022917366 0.10168068 0.13965283
000370 06 90 2d bd 51 77 d0 3d 33 c2 09 bd 69 b9 ef 3d
       -0.04237368 0.10179008 -0.03363247 0.11705286
000380 c3 ba ff 3d b6 3e 96 3d 31 bb 89 3d d0 36 c4 bd
       0.12486794 0.0733618 0.06725157 -0.09580767
000390 80 ad 3f bd 21 9c a0 bd a9 15 2a 3c c3 88 1b bd
       -0.046796322 -0.07842279 0.010381141 -0.037972223
0003a0 10 64 c9 3d 50 0e d1 3d c0 10 81 3c 97 e6 38 3d
       0.098335385 0.10207808 0.015755057 0.045141783
0003b0 48 68 82 3d 79 43 0e 3d 39 f8 8b bd fe cd 58 bd
       0.06367546 0.034732316 -0.06834454 -0.052930824
0003c0 e1 dc db 3d b0 ec 69 3d 50 6f 04 3e 09 a8 99 3d
       0.10735489 0.05711049 0.12933087 0.07502753
0003d0 7d ca 4d bd d6 bc a6 bd 23 1f 96 3d fb 96 18 3d
       -0.050241936 -0.08141486 0.073301576 0.03725336
0003e0 e0 5c 93 3d be aa 97 3d 45 1d a2 3d a9 7c 88 bd
       0.07195449 0.07405613 0.07915739 -0.06664402
0003f0 6d ad 78 3c 26 a6 9b 3d 1f 3b 12 bc b6 3b d6 3d
       0.015178067 0.0760005 -0.008925228 0.10460608

lstm.bias_ih_l0 f4 [256]
000000 8a bb 65 bd cb 96 10 3e 3a a6 02 bc 9b 26 0c 3e
       -0.056087054 0.14120023 -0.007974202 0.13686602
000010 48 b7 7f bd 40 ca 93 bd 35 c3 2e bb c9 ea 6b 3c
       -0.06243065 -0.072163105 -0.0026666645 0.014399239
000020 ef 7e 49 bd 2e f4 e3 3d 39 7e 05 3e ee c9 aa 3d
       -0.04919332 0.11130558 0.13036431 0.08339296
000030 aa 6c 47 3d e3 44 77 bd 0d 15 b5 bc 26 82 e8 bd
       0.048687615 -0.06036843 -0.022104764 -0.11352949
000040 45 b8 00 3d 45 fc 54 3a fe ef 04 3e cf 05 26 3d
       0.031425733 0.00081247493 0.12982175 0.040532883
000050 87 18 af 3d bb d9 41 bb d7 01 80 3c 53 9f 99 bd
       0.085496 -0.002957924 0.015625877 -0.07501092
000060 ab 09 e3 3d ef 7a 51 3d c6 80 d2 3d 9c 3d 19 3d
       0.110858284 0.05114263 0.10278468 0.03741227
000070 e3 79 bc bd 0f ea bc 3d d2 13 1f 3c 1a e8 4b 3d
       -0.092029355 0.09224331 0.009709315 0.049781896
000080 96 dd a9 3d c7 a3 aa bc 8b 33 a3 3d 90 75 41 bd
       0.08294217 -0.020830048 0.079688154 -0.047231257
000090 d8 ca 9f bd 3b 32 9e bc f6 05 c6 bd af f8 3d bd
       -0.07802361 -0.019311061 -0.09669106 -0.04637974
0000a0 4a 77 69 3c 65 c8 94 3d ba 3a 08 3e 7f 56 b1 3d
       0.014249632 0.07264785 0.13303652 0.08659076
0000b0 4c 39 06 3e 4d 70 10 3e b5 dd aa bd 98 8e 02 3e
       0.13107795 0.1410534 -0.083430685 0.12749708
0000c0 5b e9 fa 3d e8 54 ac bd d4 ae 73 bd 7d b7 6c 3c
       0.1225154 -0.08414632 -0.0594929 0.014448044
0000d0 4e a1 33 3d 87 b0 3d bd 69 c7 9c 3d 45 81 97 3d
       0.043855004 -0.046310928 0.07655222 0.07397703
0000e0 21 0a 7e bc e6 92 a2 3d d7 74 92 bd 49 55 33 3c
       -0.015505345 0.07938175 -0.07151192 0.010945627
0000f0 c0 0f c3 bd bf b4 a9 bd 43 77 cb ba f0 cb b2 3b
       -0.095244884 -0.08286428 -0.0015523214 0.00545644
000100 24 b8 f3 3a 4c fa 66 3c 2d 06 03 3e 55 ee 55 bd
       0.0018594307 0.014097761 0.12795325 -0.052229244
000110 06 de 96 bc 33 c3 bd 3d 45 d2 b2 3d 10 82 8f 3c
       -0.018416416 0.09265747 0.08731512 0.017518073
000120 aa a0 5d bd dd 50 cb bd ad b4 24 bd ab 6a e2 3d
       -0.0541083 -0.09927533 -0.04021137 0.110555016
000130 c1 2d dd 3d 45 c8 07 3e b8 35 f9 3d cf 71 95 3d
       0.107997425 0.1325999 0.12168449 0.07297098
000140 01 69 ff 3d 40 54 05 3e 79 a0 d7 3c f1 ba 97 bd
       0.124712 0.1302042 0.026321637 -0.07408703
000150 69 9d 37 bd e2 b8 bd bb bc aa 49 3d 1a 8d b8 3d
       -0.044827852 -0.005789862 0.04923509 0.09011288
000160 31 20 09 3d e8 93 ea 3c ad 81 82 bb 7f 23 1e bd
       0.033477966 0.02863498 -0.0039827437 -0.03860807
000170 80 4b e4 bd 83 ea 78 bd 92 1b 38 bd 10 92 c4 bc
       -0.11147213 -0.060770523 -0.044948168 -0.02399543
000180 80 62 d4 bc 18 f1 85 bd ad e0 f0 bc 5d c2 87 bc
       -0.025925875 -0.065401256 -0.029404009 -0.016572172
000190 cd e5 73 3d d7 85 d4 3d bd 9c 4e bd a7 0e 8a bd
       0.059545327 0.103770904 -0.050442446 -0.06741076
0001a0 07 53 72 3d 0d ee f0 3d f0 ee cd 3c eb 83 93 bd
       0.059161212 0.117641546 0.025138348 -0.07202896
0001b0 49 bb dd 3d 3f fd 08 bd a0 bc eb 3d 13 44 91 bc
       0.108267374 -0.03344464 0.11510587 -0.017732656
0001c0 ff 59 47 3d 90 8d 19 bd e2 56 e2 bd e8 f0 a4 bd
       0.04866981 -0.03748852 -0.11051728 -0.08053762
0001d0 09 78 6f bd c0 27 c2 3c c8 82 b3 3b bd 78 1d bc
       -0.058464084 0.023700595 0.005478237 -0.009611306
0001e0 1c 05 63 bd d8 c6 31 3c bb cf f1 3d 77 29 0c 3e
       -0.055424795 0.010850631 0.118071996 0.13687693
0001f0 f2 aa a7 bd 78 d2 f6 3c a4 88 ff 3d 20 cf 33 bd
       -0.08186902 0.030129656 0.12477234 -0.0438987
000200 28 d3 6a 3c 3d 12 ea 3d 83 ef 08 3c 04 a0 9f 3d
       0.01433257 0.1142926 0.008357885 0.077941924
000210 f9 3e 1f bd ca f3 b0 bc 36 81 7b 3a 1b 1c 39 bd
       -0.038878415 -0.021600623 0.0009594144 -0.04519282
000220 e0 19 27 bc 16 af c1 bd 69 2a 37 3d e4 31 f9 3c
       -0.01019904 -0.09457223 0.04471818 0.030419298
000230 d4 fc 80 bd 05 fc ce 3c 41 29 0a 3e cd 34 af 3d
       -0.06298223 0.025266657 0.134923 0.08554993
000240 9d a9 76 3d 4b 32 02 3d fd 14 ca ba 86 cf 10 bd
       0.06022035 0.031786244 -0.0015417632 -0.03535416
000250 5d 83 6c bd f5 92 ad 3d 77 01 9c bc ac ae 20 3d
       -0.057742465 0.084752955 -0.019043667 0.03922908
000260 5d 24 a2 bd 50 fe 41 bd c3 c3 0e bd 96 87 62 bc
       -0.07917092 -0.047361672 -0.03485466 -0.0138262715
000270 91 4a 9a bc d0 f0 d4 3b ea 79 29 3c 12 09 89 3d
       -0.018834384 0.0064984336 0.010344008 0.06691183
000280 63 49 b3 3d d2 ad 6d 3d 53 ae 67 bd 24 be bc 3b
       0.08754232 0.058027096 -0.056562733 0.005759971
000290 80 d2 54 bd cc ec 8a bc 25 18 b3 3c bf b0 4f bd
       -0.05195856 -0.016958617 0.021862099 -0.050705668
0002a0 12 37 a8 bd 4f be 48 bd 0d e7 b7 bd 78 e2 88 3d
       -0.08213629 -0.049009617 -0.08979616 0.066838205
0002b0 e5 a7 9b bd 9d 2a e3 bd 23 37 15 3d e4 7c 94 bd
       -0.07600383 -0.11092112 0.036429536 -0.072503835
0002c0 e2 51 cd 3d 59 91 77 3c 73 3a 90 bd 8a 8a 43 bd
       0.100253835 0.015110337 -0.07042398 -0.047739543
0002d0 b9 54 ad bd e1 c1 1e 3d 99 34 46 3d 2c 2e a3 3d
       -0.08463425 0.038759116 0.048390005 0.07967791
0002e0 f6 f5 b3 bd 58 3c a3 bc 5e 54 0e 3e 2c 82 ae bc
       -0.08787148 -0.019926235 0.13899371 -0.021302305
0002f0 11 3b 96 3d 83 42 9c 3c 00 31 aa bd 48 25 1a bc
       0.07335485 0.019074684 -0.08310127 -0.009408303
000300 d5 a4 21 3e 56 05 6c 3d 4e 5b a6 bc f4 26 34 bd
       0.15785535 0.057622276 -0.02030721 -0.04398246
000310 70 0b 2a 3d 30 34 f6 3c 5c 32 a2 3d 3e c5 cf 3c
       0.041514814 0.030054182 0.079197615 0.025362607
000320 29 71 46 3d c9 dc 78 bd c0 3c df bc af 01 83 3c
       0.04844776 -0.060757432 -0.027250648 0.015992014
000330 9f 8c 94 3d d7 56 19 3e 20 96 08 3e b1 0d 9b 3d
       0.07253384 0.14974533 0.13338518 0.07570971
000340 34 e0 7c 3d a4 02 46 bd 8e 75 e1 3d 9e de 0c 3e
       0.061737254 -0.048342362 0.1100875 0.13756797
000350 c3 d5 67 3d 51 92 23 3e c7 89 04 3e 25 b1 de 3c
       0.056600343 0.15973784 0.12943183 0.027184078
000360 26 f3 33 3d 9e 26 e9 3d 41 a1 d6 3d 28 29 24 3d
       0.043933056 0.11384319 0.104799755 0.040078312
000370 30 7c e7 bd 74 27 05 3e 8b bc 42 bd f5 c1 20 3d
       -0.11302984 0.13003331 -0.04754309 0.03924747
000380 4c 3b 8d 3d b1 28 c1 3d f8 ae c9 3c 3a da 6a 3c
       0.068960756 0.094315894 0.024619564 0.014334256
000390 cc a7 74 3d c2 38 bf 3d bb 98 02 bd 9d bd 80 bd
       0.059730336 0.093369976 -0.031883936 -0.06286166
0003a0 4b 38 fb 3d c4 24 78 bd 19 9d fb 3d 55 a1 a8 3d
       0.122665964 -0.060581937 0.122858234 0.08233897
0003b0 3b a5 d0 3c 4b 46 63 bd 73 ab 9d bd 96 88 b0 3d
       0.025469413 -0.05548696 -0.07698717 0.08619802
0003c0 c5 16 95 3d 62 b9 a8 b9 bd 4e 19 bd f7 12 54 bd
       0.072797336 -0.00032181578 -0.037428606 -0.0517759
0003d0 51 ac b1 bb 78 49 8f 3d 95 13 6c bc 5f e1 8d 3d
       -0.005422153 0.06996435 -0.014408966 0.06927752
0003e0 62 33 5f 3b d4 45 0e bd f1 a6 09 3d da d0 14 3e
       0.0034057726 -0.034734562 0.033606473 0.14532796
0003f0 9a a0 9c bc 5b 6b bc bc f8 06 fd 3d c1 86 12 bc
       -0.01911955 -0.02300041 0.12354845 -0.008943261

lstm.bias_hh_l0 f4 [256]
000000 53 15 53 bd 1e 1d a6 bc da 6c 1b bc 47 c3 b1 bd
       -0.05153401 -0.020277556 -0.009486401 -0.08679824
000010 72 ef 39 bd e0 a9 84 3d b1 d7 ec 3c 1f e7 66 bd
       -0.04539437 0.064777136 0.028911443 -0.056372758
000020 ba 27 a4 3d a0 6d 88 3d f6 0a cc bc cd 7c 6f bd
       0.0801539 0.06661534 -0.02490757 -0.05846863
000030 18 59 a5 bc 1e 9e 9c 3d 0a 73 49 bc 3a ea 31 bd
       -0.020184085 0.07647346 -0.012295494 -0.043436266
000040 d8 9f 05 3e 59 e2 9f bd 3a b9 84 3a 63 60 2a 3d
       0.13049257 -0.07806844 0.0010126003 0.041595828
000050 0c 11 db 3d 89 7d ec 3b 8a ec 25 3d 4c a5 5d 3d
       0.10696611 0.0072171134 0.040508784 0.054112718
000060 43 29 b7 bd 56 8c ab bd 84 b9 f8 3d bb 22 d7 bc
       -0.08943417 -0.08376376 0.12144759 -0.026261678
000070 61 4e 83 bd 67 da cf bd 55 fe 04 bb 8c c3 cc bd
       -0.06411434 -0.10149079 -0.0020293195 -0.09998235
000080 77 07 e4 ba 08 5a 98 bd be 0c 8c bc 1c 85 76 bd
       -0.0017397244 -0.07439047 -0.01709592 -0.060185537
000090 a8 7b e5 3d 76 e1 06 3e 29 99 10 3c 56 fd 14 bd
       0.11205226 0.13171944 0.008825579 -0.036374412
0000a0 6b ae b4 3d 59 7f ee bc 17 df f5 3c 2d bc e6 bc
       0.0882233 -0.029113458 0.030013604 -0.028165901
0000b0 ea 14 db 3d a1 54 3d 3c b4 46 0e 3e 65 af 84 3c
       0.106973484 0.011555822 0.13894159 0.016196916
0000c0 9d 14 a5 bd 20 e0 90 bd ec 3a 01 3e 10 5f 19 3e
       -0.08060572 -0.070739985 0.12620133 0.1497767
0000d0 35 2d ad bd 52 53 e3 3d dc f0 29 3d 56 be 97 3c
       -0.08455888 0.110998765 0.041489467 0.018523376
0000e0 66 6c e0 bb d2 09 bb 3d 1d bf e8 3d 17 36 a5 3d
       -0.0068488596 0.091327325 0.11364577 0.080669574
0000f0 3a 36 ee 3d 07 65 8e bb f5 6d be bd c5 66 92 3d
       0.11631437 -0.0043455395 -0.092983164 0.07148508
000100 00 bb 12 3e 88 31 85 bd da 7e 3d bc cb ba 0b 3e
       0.14329147 -0.06503588 -0.011565888 0.13645475
000110 f6 bb ed 3d 23 dc 6f 3d 05 3f 91 3d 93 ba 12 3c
       0.11608116 0.058559548 0.07092098 0.008955616
000120 e8 06 cd 3b 51 c3 bf 3c f7 52 8f bd 85 22 cd bc
       0.006256927 0.023408564 -0.06998246 -0.025040874
000130 b3 8e 90 3d cf 94 da 3d 1f 18 07 3e b7 2e eb 3d
       0.07058468 0.10672914 0.13192795 0.114835195
000140 78 52 6b bc d4 24 5b 3d fe 34 b3 bd bb 4e d8 3d
       -0.014362924 0.05350192 -0.08750342 0.10561892
000150 e9 40 5a 3d 19 88 0f 3e a9 d9 dd 3d 4d ae 16 3e
       0.05328456 0.14016761 0.10832531 0.14714928
000160 2c 5b b3 bd 7a da 0f 3e 61 e4 c1 bd 42 e2 45 bd
       -0.08757624 0.14048186 -0.09467388 -0.04831148
000170 13 c0 eb 3c 12 70 89 bc 82 9f 1a 3e dc 01 0e bd
       0.028778112 -0.016777072 0.1509991 -0.034669742
000180 e9 77 2c bd aa 0c c6 3d 7c c4 13 3e bd ef 0d bd
       -0.042106543 0.09670384 0.14430422 -0.03465246
000190 cd 84 be bd b6 7e 0f bd 9d 8b 10 3e e7 44 cc 3d
       -0.093026735 -0.03503295 0.14115758 0.099740796
0001a0 9a ec e4 3c 87 66 fc 3c d2 00 91 3d e9 c7 16 3e
       0.027944852 0.030810608 0.070802346 0.14724697
0001b0 eb 87 c6 bd 9e 32 08 3e 17 94 c6 3c 14 78 ed 3c
       -0.09693893 0.13300559 0.024240537 0.028987922
0001c0 23 3a 99 3d 8a ce eb 3d b9 5a 73 bd dc 98 06 3e
       0.07481792 0.115140036 -0.05941269 0.13144249
0001d0 ad 7f 80 bd 1e 7a 88 bd de 7e 86 3d b4 66 96 3d
       -0.06274352 -0.06663917 0.06567167 0.07343808
0001e0 ad b4 08 3e 48 f4 4f 3d 19 99 82 bd d0 dd 0b 3d
       0.13350172 0.050770074 -0.06376857 0.034147084
0001f0 a1 dd 70 3d 4b 9a 0c 3e 48 5c ad b8 f0 60 c9 3d
       0.05880511 0.13730733 -8.2664716e-05 0.098329425
000200 c3 77 39 3d ed a6 24 3d d4 db 70 bd af d3 07 be
       0.04528023 0.040198255 -0.058803394 -0.13264345
000210 d1 23 c0 3d 2f a7 b3 bd b1 b2 11 bc c5 b8 ea 3b
       0.093818314 -0.08772122 -0.008892701 0.0071631395
000220 52 83 b3 3c 6a 7c 72 bc 57 a0 d6 3c 2a 8a 17 3e
       0.021913204 -0.01480017 0.026199503 0.14798799
000230 ec 5d e9 3d 33 25 03 3d 54 00 57 3c 6d 4a 80 3d
       0.11394867 0.032017898 0.013122637 0.062641956
000240 64 c1 f0 ba a6 08 ed 3d 6b be 17 3d 0e 34 c9 3d
       -0.0018368182 0.11573915 0.03704683 0.09824382
000250 21 ef bc bd cb cd ec bd 09 7d d4 bd d1 c4 c5 3d
       -0.09225298 -0.115626894 -0.10375411 0.096566804
000260 d0 4c a7 3d b9 3e 38 bd 72 86 bf bd 9f 8c d2 3d
       0.08168948 -0.044981692 -0.09351815 0.102807276
000270 aa 7d 42 3d e9 60 20 3d 75 eb 23 3d c4 a3 33 3d
       0.047483124 0.03915492 0.04001947 0.04385735
000280 ef 95 9b bd c0 63 fa bd f3 65 6d 3c 73 9a 94 bc
       -0.07596957 -0.12226057 0.014489639 -0.018140053
000290 f5 9a 1b be 11 5d 18 bb 9f 41 02 bd 9a 40 63 bc
       -0.1519583 -0.0023248831 -0.031800862 -0.013870383
0002a0 f5 e4 8a bd 29 ac f0 3d 61 22 e5 bd 8a 26 37 bd
       -0.06781951 0.11751587 -0.11188198 -0.044714488
0002b0 19 74 a5 3c 75 ea a6 bc d3 6f b9 bc 84 dd 55 bd
       0.020196961 -0.02037547 -0.02263633 -0.052213207
0002c0 54 f7 c3 3d c7 d6 07 be bd 6f d5 bd 87 ad 19 bd
       0.095686585 -0.13265525 -0.10421703 -0.037519004
0002d0 2b f4 bd 3d 51 d2 b6 3d 08 b6 2c bc f4 0f 0a 3e
       0.09275087 0.089268334 -0.0105414465 0.13482648
0002e0 cd 50 03 bd 92 9d 06 3d eb 3c b8 3d 2a cc e0 3d
       -0.03205948 0.032865115 0.08995994 0.10976441
0002f0 31 3f a8 3c cf 08 5f 3d 6d dd 4b bc 61 af fa bd
       0.020537945 0.05445176 -0.012442929 -0.12240482
000300 e9 92 42 bd 26 f0 08 3e bd 36 1e bc f5 cc 33 3c
       -0.047503386 0.1337286 -0.009656605 0.0109741585
000310 1a 6a bc 3d 0c 7e 06 3e c7 a1 99 3d 61 c4 a3 3d
       0.09199925 0.1313402 0.0750156 0.07996441
000320 4d c4 3d bd 3d 3a 5c bd 7b 51 d2 3d 47 57 24 bd
       -0.046329785 -0.053766478 0.102694474 -0.040122297
000330 1e 60 fd 3d ca f7 cb 3b 10 8c 84 3b 8f 6e c8 3d
       0.123718485 0.006224607 0.004045017 0.097867124
000340 e7 eb 3c bd f1 10 b8 bc 83 c3 22 3e 9f c2 f8 3d
       -0.04612341 -0.022469016 0.15894894 0.12146496
000350 cd b7 74 3d d0 84 99 bd d4 36 af bb fe 6d 8d bc
       0.0597456 -0.07496035 -0.005347112 -0.017264362
000360 7a 65 8c 3d ea b4 6d bd ef 83 27 3c fa c1 1c 3e
       0.068552926 -0.05803386 0.0102243265 0.15308371
000370 1f fe b8 bd 5c f7 f5 3d ed fc 5d bc fc b6 9a bd
       -0.09032845 0.12010071 -0.013549072 -0.07554433
000380 8e 6d 61 3d 81 47 b7 bc e1 98 00 3d 70 f6 78 bc
       0.05503612 -0.022372963 0.031395797 -0.015195474
000390 67 6c 32 3c fe df f6 bc 04 a3 ce 3d 81 f6 81 3d
       0.010890103 -0.030136105 0.100896865 0.06345845
0003a0 66 e6 0e 3e 26 e9 95 bb 7f 90 b5 3d 85 51 39 bd
       0.13955078 -0.0045749126 0.08865451 -0.04524376
0003b0 9b 70 4d bd 65 c8 1d bd 90 be 5d bd 30 e5 d1 bc
       -0.050156217 -0.03852119 -0.054136813 -0.02562198
0003c0 ff 85 6a bd e4 97 eb 3c 91 2a 16 bc 80 e7 5d 3d
       -0.057256695 0.02875895 -0.009165422 0.054175854
0003d0 e3 1f 82 bd c9 d7 4b 3a 85 77 ce bc 9f 96 34 3e
       -0.06353738 0.000777599 -0.025203476 0.17635582
0003e0 7d 7a ba 3d b3 4f 17 bc fd ee ff bb 16 8d 92 3d
       0.09105394 -0.00923531 -0.007810472 0.07155816
0003f0 0b f3 27 3d 41 b1 99 bd 0d d2 1a 3e 27 97 cb bc
       0.04100327 -0.075045116 0.1511919 -0.024852348

lstm.weight_ih_l1 f4 [256, 64]
000000 25 62 88 3d ff 71 cb 3d 98 a6 a2 bd c5 f3 fd bd
       0.066593446 0.099338524 -0.079419315 -0.12400011
000010 e8 07 b8 bd c5 6e 02 3c 81 4f 45 3d 79 9e 04 3c
       -0.08985883 0.00796098 0.048171524 0.008094423
000020 5d db 48 bd 70 6d 69 bd e0 d4 00 bd 89 17 4f bb
       -0.049037326 -0.056989133 -0.031453013 -0.0031599721
000030 47 b6 f3 bb f8 e4 c0 bd 28 eb f5 bc 07 ea 05 3d
       -0.0074375006 -0.09418672 -0.030019358 0.03269389
000040 24 17 23 bd 34 10 d0 3c 93 41 f0 3d df c6 a4 3d
       -0.03981699 0.025398351 0.11731257 0.08045744
000050 f9 dd d0 bd d2 e8 80 bd 4c 00 7b 3c b8 1c a4 3d
       -0.10198588 -0.06294407 0.015319895 0.0801329
000060 a4 02 b6 b9 5e 22 99 bd f2 64 1f 3e 7a 36 91 bd
       -0.00034715713 -0.07477258 0.15565851 -0.07090469
000070 45 58 e7 3b b3 e8 12 bd db aa 97 bd 42 f7 03 bd
       0.007060083 -0.03586645 -0.07405635 -0.032218225
000080 a0 ad 0b bc fe 45 05 be c3 26 0f 3c 65 f8 96 bd
       -0.008525282 -0.13014981 0.008737269 -0.07371596
000090 c2 48 50 3d d6 f7 ca bd f1 1d 44 bd 4b ae f3 bd
       0.050850637 -0.09910552 -0.047880117 -0.11898478
0000a0 f3 40 50 3d 1e d6 1e 3e 9e 37 1b be 47 0c a2 bc
       0.05084319 0.15511367 -0.15157935 -0.019781245
0000b0 98 8f c3 3c 6a 6f 5f 3c 7e f4 e0 bb 00 f4 71 3d
       0.023872182 0.013637403 -0.0068650832 0.059070587
0000c0 75 9d ac bd ac 24 a7 3d 58 fe 5c bd 57 8e 03 3e
       -0.0842847 0.081612915 -0.0539535 0.12847267
0000d0 5a db 65 bd d5 9b 89 bc 89 3a 29 3d 61 02 82 bb
       -0.056117393 -0.01679794 0.04131559 -0.0039675687
0000e0 56 a9 d5 bd c4 8a 1e 3d 46 43 11 3d de 64 05 3e
       -0.10432689 0.038706556 0.035464548 0.13026759
0000f0 46 19 12 bd de 39 78 3c ea ea fd 3d f9 45 74 bd
       -0.035668634 0.015150515 0.12398322 -0.059637044
000100 20 c8 61 bc 58 61 0d 3d fd dd b2 bc fc 2c ae bd
       -0.013780624 0.034516662 -0.021834368 -0.08504674
000110 8f 4b 7c bd 10 29 85 bc 7f 30 b8 bd 35 ba d6 bd
       -0.061595496 -0.016254932 -0.08993625 -0.10484735
000120 1f fe f1 3c 53 8c d7 3a 8e ce d0 3d 0d 98 c4 bd
       0.02954012 0.0016445018 0.10195647 -0.09599314
000130 bb a6 99 bd 51 ff b4 b9 f5 a9 97 bd 16 f4 52 3d
       -0.075025044 -0.000345225 -0.074054636 0.05150231
000140 e8 66 d4 3d 66 35 62 3d 62 0f 38 bd 38 0b 63 3d
       0.1037119 0.055226706 -0.044936545 0.05543062
000150 ad ef 0c 3d ac 65 08 be 08 39 02 3e 7a 93 cd 3d
       0.03440826 -0.13320035 0.12717068 0.100378945
000160 17 72 70 3d 7c 92 93 bd e6 d9 5a 3d e6 d9 c9 3d
       0.058702555 -0.07205674 0.05343046 0.09856014
000170 73 33 c0 bc 11 f9 48 bd 28 0f 6b bd a7 30 ad bc
       -0.023462033 -0.049065653 -0.0573875 -0.021141363
000180 8f 89 e0 3d 02 60 8d 3d af 49 f5 3c ef 82 0a 3e
       0.10963737 0.06903078 0.029942362 0.1352651
000190 ca 7e 13 bd f4 51 45 ba d4 17 f0 3d fc b0 79 3c
       -0.036009587 -0.00075271656 0.11723295 0.01523995
0001a0 4a 5c 5f bc aa 6c c4 3d ae 60 92 bd 82 e6 69 39
       -0.013632843 0.095910385 -0.071473464 0.00022306482
0001b0 a5 7b 6f bd bf b3 15 bd 4e ce ad bd 81 b9 2b 3c
       -0.058467526 -0.036548372 -0.08486615 0.010481239
0001c0 f3 ba a0 3b 61 b0 10 3d d4 41 86 bd d3 6a aa 3d
       0.0049050986 0.035324458 -0.065555245 0.08321156
0001d0 4f fa b4 3c 63 34 28 bd e6 b2 b1 3c e1 fa 05 bd
       0.022092013 -0.041065585 0.02169175 -0.03270996
0001e0 b8 ea e3 3d 9a e7 8f bd 31 28 e8 3d dd 83 09 3c
       0.111287534 -0.07026596 0.11335791 0.008393255
0001f0 be 05 d2 bd aa 39 b9 3b 52 ab d4 bc 08 39 62 3c
       -0.102550015 0.005652626 -0.025960598 0.013807543
000200 8f 56 5c 3c b1 62 4e bd d2 ff 72 bd 2c 37 1e be
       0.013448372 -0.05038709 -0.059326 -0.15450734
000210 51 83 40 3d 83 0a 9a 3d ce 83 a5 bd 11 31 87 bd
       0.047000233 0.07521536 -0.080817804 -0.066011555
000220 9d 16 33 3d 18 fc 05 3e 2d ab 16 bd 07 7b b8 bd
       0.043722738 0.13084447 -0.03678434 -0.090078406
000230 ca 17 a5 bd 4a 24 ff bc 57 02 71 3a 54 9e a9 3d
       -0.08061178 -0.031145234 0.0009193769 0.08282152
000240 3f d9 63 bd b7 a5 b9 bd dc a4 a4 bd da 97 8d bc
       -0.055627104 -0.09064811 -0.08039257 -0.017284323
000250 b6 90 c3 bc 4a 8c 74 bd 44 bd b7 bd f8 7e 89 bd
       -0.023872714 -0.059704103 -0.089716464 -0.067136705
000260 05 e8 6b ba 5c dc f0 bd f6 87 d5 3d c9 27 18 bd
       -0.0008999112 -0.1176078 0.10426323 -0.037147317
000270 e4 e3 78 bd 0f 62 e5 bd 3d 36 0a be 10 25 fa bd
       -0.06076421 -0.11200344 -0.13497253 -0.122141
000280 74 ab 92 bd 5d 16 18 be a4 df 38 3d d8 c4 49 bd
       -0.07161608 -0.14852281 0.045135155 -0.04925999
000290 3a 35 2c 3b ab c7 2f 3d 13 a0 61 bc e0 80 ee bd
       0.0026276843 0.042915028 -0.013771075 -0.11645675
0002a0 10 3f e0 3b 74 8b 6a 3d 4e 1d 45 3c 8c ff e0 3d
       0.006843455 0.0572619 0.012030913 0.10986242
0002b0 08 50 26 bd 0c 7c 55 3d de c4 6f bd 9b 73 c5 3d
       -0.040603667 0.052120253 -0.058537357 0.096411906
0002c0 79 8b af 3d ee 39 fe bd 00 47 ac bd 3f 72 02 3d
       0.08571524 -0.12413393 -0.0841198 0.031847235
0002d0 2b 36 c9 3b 93 0a 06 3e d4 fa 34 bd 1c e3 cf bc
       0.0061404905 0.13089971 -0.04418452 -0.025376849
0002e0 5f 67 00 be 2e f7 b1 3d a9 0a a5 bd 69 77 0b bd
       -0.12539433 0.08689724 -0.08058674 -0.034049425
0002f0 3b 53 13 bd 06 5d f0 bd 9e e4 eb 3d 2c 7f 9a bc
       -0.035968047 -0.11736493 0.11518215 -0.018859468
000300 fe 6d 05 be 88 34 52 3d 73 4a 21 ba 1a 31 12 be
       -0.1303024 0.05131963 -0.00061527564 -0.14276543
000310 06 e3 40 3c 7f ac 85 bd 47 7b 05 bd 5c df 0b be
       0.011772877 -0.06527042 -0.03258827 -0.13659424
000320 04 97 ab bd 3a 63 a6 bc 31 c0 03 3e c0 56 ce bd
       -0.08378413 -0.020310987 0.12866284 -0.1007514
000330 e0 99 bf bd 96 ee 06 be d8 f3 cd 3d 37 9c 65 3d
       -0.09355521 -0.13176951 0.10056275 0.05605718
000340 6c ba 16 bb de 4f cb 3d d2 a7 b1 bd 6d 5d f4 3c
       -0.00229993 0.09927343 -0.08674587 0.029829705
000350 9e d6 9a 3d 04 f8 91 3d 05 44 b8 3c 82 5a d5 bd
       0.07560466 0.07127383 0.022493372 -0.104176536
000360 1a b1 9c bd 52 bf 54 bd a9 77 0f bd 95 c4 36 bd
       -0.07650967 -0.05194027 -0.035026226 -0.04462107
000370 a1 35 c1 bd ac 12 06 be 79 6d 8f 3d 9b 79 30 bd
       -0.09434057 -0.1309306 0.07003302 -0.043084722
000380 9c 16 78 3d 76 83 37 3c 48 ca e9 3b 86 ea d0 3d
       0.060568437 0.011200776 0.0071347095 0.10200982
000390 9b 7d 3b 3d e5 a1 be bd 60 7a 0b 3c 75 80 9a 3d
       0.045774084 -0.09308223 0.008513063 0.075440325
0003a0 d8 3b 78 bc fd e9 cc bd c3 61 2a bc 26 8b 08 3d
       -0.015150987 -0.10005567 -0.010399285 0.033335827
0003b0 d3 c2 ae bc 73 30 e8 bc 8d 3c e0 3d 8b 50 0e bd
       -0.021333134 -0.028343415 0.10949049 -0.03474478
0003c0 d8 7e 8d 3d ac ad 15 be 51 bf 82 bd f3 4d ce 3d
       0.06908959 -0.14617032 -0.06384147 0.100734614
0003d0 c6 41 b7 3d 94 e5 41 bd e2 ed 26 3b b0 d7 83 3c
       0.08948092 -0.047338083 0.002547138 0.016094059
0003e0 bb 95 0c be d0 4c af 3d 7d c4 cf 3d 5b 02 11 3d
       -0.13728993 0.08559573 0.10144899 0.035402637
0003f0 aa 5c fb bd 05 f9 ec bb 16 fa ca b9 e0 7d c6 3d
       -0.12273534 -0.007231834 -0.0003871477 0.096919775

lstm.weight_hh_l1 f4 [256, 64]
000000 b8 29 7c 3d 33 8d dd 3d 92 fd be bd 3f 86 d3 bc
       0.061563224 0.10817947 -0.093257084 -0.02582085
000010 45 2e b0 bd 2e 98 ab bd c2 4b 98 bc 8b 37 a9 bd
       -0.08602575 -0.08378635 -0.018590812 -0.08262547
000020 47 cd 06 be 67 32 58 3d e5 63 99 bd ba 50 95 bd
       -0.13164245 0.052782442 -0.074897565 -0.07290788
000030 1a 61 24 3d ce 8a b8 bc 62 df 22 3d dc 53 1d be
       0.040131666 -0.022527125 0.039763816 -0.15364021
000040 e0 21 bd 3d ef 7f f0 bd 28 01 94 3d c9 c4 ec bd
       0.09234977 -0.117431514 0.07226783 -0.11560971
000050 d8 25 0a be fd 71 b9 3d d0 b0 a2 bd 5b 57 e2 bd
       -0.13490999 0.09054945 -0.079438806 -0.11051818
000060 a3 b2 23 3d 07 4c 76 3d 20 2c 89 3d 0f 09 3b 3c
       0.039965283 0.0601311 0.06697869 0.011415734
000070 52 44 03 3e b0 b1 c3 bd 5f c7 03 3e 1e 33 14 3e
       0.12819031 -0.095553756 0.12869023 0.14472625
000080 7c 4f d0 bd 12 78 1a 3d b5 44 40 bc 2b df 9d 3d
       -0.101714104 0.037712164 -0.011735131 0.077085815
000090 84 09 91 bd 1f 48 95 bb c4 07 52 3d 80 32 78 bd
       -0.07081893 -0.0045557166 0.051276937 -0.060595036
0000a0 1f 26 72 bc 93 1d 1d be 80 3d 0c 3e 97 de 62 3d
       -0.014779597 -0.15343313 0.13695335 0.05538806
0000b0 f9 4a 93 3d 25 5d 64 bd 51 31 74 3d a2 ba 80 3d
       0.07192034 -0.055752892 0.059617344 0.062855974
0000c0 99 19 2a bd a1 f0 44 bc cd ec 0f 3e ce 58 85 bd
       -0.041528318 -0.012020261 0.14055176 -0.06511079
0000d0 9c b1 2c 3d b9 09 0e be 76 77 05 be 01 b6 30 3c
       0.04216157 -0.13870896 -0.13033852 0.010785581
0000e0 fa dc 15 be 0d 7f af bc 90 aa 15 3e 52 84 be bc
       -0.14635077 -0.021422887 0.14615846 -0.023256455
0000f0 45 f5 74 3d 36 86 77 3c 7a 47 d0 bd b5 8c 14 3d
       0.05980422 0.015107682 -0.10169883 0.036267
000100 25 44 bc 3d e7 67 7e bd 54 0f 1b 3c c6 4f 11 bd
       0.09192685 -0.062110808 0.009464104 -0.03547647
000110 2f 4e 01 be 55 a1 d9 3d 51 ed df bc 8f 2f 48 bd
       -0.12627481 0.10626475 -0.027334841 -0.04887348
000120 02 d4 06 be f6 78 1e bd e5 8d 74 bd 71 34 6b bd
       -0.13166812 -0.038689576 -0.059705634 -0.05742306
000130 d0 14 27 bd b5 47 45 3c 87 52 d6 3d ed 68 b0 3c
       -0.040791333 0.012041022 0.104649596 0.021534408
000140 9a 99 19 3c aa 60 a2 bd ce 76 74 3d 7a af d1 bc
       0.009375 -0.079285935 0.059683613 -0.025596369
000150 57 64 c6 3d 75 96 d1 bc 02 e6 a9 bd 43 91 1a be
       0.09687107 -0.025584439 -0.08295824 -0.15094475
000160 fc 9e d8 3d d4 26 05 bd 1d 75 7a 3d 61 02 95 3c
       0.10577199 -0.032507733 0.061146844 0.01818961
000170 67 38 1e 3e 66 a9 07 bc a3 d0 1c bd 78 91 0b 3e
       0.15451203 -0.008280134 -0.03828491 0.1362971
000180 82 47 04 be 54 bd fe bd 55 8b a2 bd a5 0f bd 3d
       -0.12917903 -0.12438455 -0.07936732 0.092314996
000190 dd be 1d 3d be f3 00 be 2d 87 02 be bd e3 b4 3d
       0.0385121 -0.1259298 -0.12746878 0.088325
0001a0 da 4a e9 bd c7 d0 c6 bd 85 a0 fb bc 7f 9d ac bd
       -0.1139123 -0.0970779 -0.03071619 -0.084284775
0001b0 21 60 ff bc 2f e6 54 3d 7d e4 91 bc 3d 22 09 bc
       -0.031173768 0.051977333 -0.017809147 -0.008369979
0001c0 03 34 b6 bd 44 b8 44 bb a1 b1 0b 3e 55 1f aa 3d
       -0.08896639 -0.0030017057 0.13641979 0.08306757
0001d0 d1 9b 6d 3d 19 e8 e8 bc 47 a3 95 3c fd 88 fb 3d
       0.058009926 -0.028430985 0.018266333 0.12281988
0001e0 95 ad 6f 3d d9 d1 38 bd a1 ea 26 bd c7 3d 1a 3d
       0.05851515 -0.045122 -0.040751103 0.03765657
0001f0 64 34 82 3d 52 11 1a bd 61 15 ac 3d dc fc b0 3d
       0.06357649 -0.037614174 0.08402515 0.08641979
000200 73 c1 8a bc dd f6 d5 bd 2f f5 15 be 69 ef 94 bd
       -0.016937947 -0.10447476 -0.14644311 -0.07272226
000210 0c 51 8e 3d 76 4b 0e be be 3c a3 3b 38 c5 ba 3d
       0.06949052 -0.13895974 0.0049816063 0.09119648
000220 72 10 d9 3c d5 51 12 3e e2 70 d3 bd a4 ea 9c 3d
       0.0264971 0.14289029 -0.10324265 0.07661942
000230 c9 48 28 bd 7b 1d 0a bd 00 fe 72 3d 3e 7c 0b be
       -0.04108504 -0.03371952 0.059324265 -0.13621613
000240 68 c5 a5 bd 67 c8 bf 3c a1 a1 4b 3d 15 7b 56 bd
       -0.08094293 0.023410989 0.04971469 -0.052363474
000250 1a c5 36 bd a1 8b 1b 3d 1a 04 a4 3d aa fa f1 39
       -0.044621564 0.037974957 0.08008595 0.0004615386
000260 f6 42 0d be 0d f0 93 bb a7 4c f3 bc 03 bc ba bd
       -0.13795075 -0.0045147003 -0.029699637 -0.09117892
000270 7a be 9b bd 1a 11 6f bd 79 43 03 bd 40 65 2f 3d
       -0.0760469 -0.05836592 -0.03204677 0.04282117
000280 3e 0a aa bd d1 18 a6 3b d5 2e 08 be e1 74 7e 3d
       -0.08302735 0.0050688763 -0.13299115 0.062123183
000290 27 e5 60 3d a5 6d 01 3d c0 4c 94 bc d2 2f ad 3d
       0.054906037 0.031598706 -0.018103004 0.084563866
0002a0 86 f1 d4 bd 1a bf 37 bd 32 19 81 bd 46 d1 6b 3d
       -0.103976294 -0.044859983 -0.06303634 0.057572626
0002b0 56 3d 52 3d 89 16 8e 3c c1 3f 97 bd 19 32 f4 bd
       0.051328026 0.01734473 -0.07385207 -0.11923618
0002c0 72 7b 3b bd e4 e5 52 3d 04 8b 1f bd 63 a9 b5 3b
       -0.045772023 0.051488772 -0.038950935 0.005543874
0002d0 50 a8 da bc a3 51 b5 3d 37 c7 d7 3d 4e 63 88 3d
       -0.026691586 0.088534616 0.10536044 0.06659566
0002e0 a9 61 9f 3c 7c 24 95 bd fb 0a 49 3d 07 13 79 3c
       0.019455748 -0.072823495 0.049082737 0.01520229
0002f0 d7 ef d4 3d 87 70 a1 3d 9a 0d 0b 3e e7 32 0d be
       0.10397308 0.07882791 0.13579407 -0.13788949
000300 6c ae 14 3d 71 31 84 3d 54 db c7 3d bc 40 a4 3d
       0.036299154 0.06454743 0.097586304 0.080201596
000310 42 69 bd bb f9 f0 62 bd 8d 38 91 bd 90 22 a6 3d
       -0.00578037 -0.05540559 -0.07090864 0.08112061
000320 ac b0 80 3d 3d 32 b4 3d a1 32 ad 3d fd 17 57 bd
       0.062836975 0.08798645 0.08456922 -0.05251311
000330 95 47 a6 bd 82 c4 f9 39 86 3a 83 3d ba e7 c6 bc
       -0.08119122 0.0004763939 0.06407647 -0.024280418
000340 52 e3 b4 3d a8 85 05 be 5f 59 a8 3c 6e f9 55 bd
       0.088324204 -0.13039267 0.020550428 -0.052239828
000350 16 ba bd 3d 0f d2 e2 3c 89 c3 b4 3d d7 c0 14 bc
       0.09264009 0.027688054 0.08826358 -0.00907918
000360 b0 eb 56 bc 1e 56 fb 3d 08 05 c2 3d f2 0c cc 3d
       -0.013117716 0.12272285 0.09473616 0.099634066
000370 73 a5 34 3d ed 92 5c bc d9 48 41 3d 93 25 b8 bc
       0.044103097 -0.013462764 0.047188614 -0.022478854
000380 6c 0e a7 bd cb 6c b4 3d 7f a1 e1 3c 03 b0 04 3e
       -0.08157048 0.08809813 0.027542828 0.12957768
000390 5b 88 86 3c e6 80 c9 bd 6a 6d 76 bc 53 57 b4 3d
       0.016422441 -0.098390386 -0.015040735 0.08805718
0003a0 c1 52 de bd a5 86 75 3d d2 3c 27 3c c4 f2 fb bd
       -0.10855628 0.05994286 0.010207372 -0.12302163
0003b0 e4 00 1c 3d 35 bd c7 bc a0 51 b2 bd fc 2e a4 3d
       0.038086787 -0.024382213 -0.08706975 0.08016774
0003c0 4f d1 95 bd c3 0f 84 3d 35 8f ac bd 11 37 98 3d
       -0.07315313 0.06448319 -0.08425752 0.07432378
0003d0 fc b2 fe bd 25 f1 b9 bd b5 91 26 be 9c 0d 1e 3d
       -0.12436482 -0.09079198 -0.1626652 0.038587198
0003e0 03 4b db bd 52 0c 3d 3d d5 c2 b9 3b 12 c4 29 bd
       -0.10707667 0.046154328 0.0056689777 -0.041446753
0003f0 a9 6b 1c bd 32 b4 8a 3d d3 dc 69 3d 84 2d be bd
       -0.03818861 0.06772651 0.05709536 -0.09286025

lstm.bias_ih_l1 f4 [256]
000000 b3 ba 88 3d 03 94 f2 3d ce aa 5c 3d d6 76 73 bd
       0.06676235 0.11844637 0.05387383 -0.059439503
000010 06 58 ab bc 1c 5c d8 3d 78 21 b9 3d f7 07 12 3e
       -0.020915996 0.105644435 0.09039587 0.14260851
000020 fb 19 94 bd 0f be 6b bd 5a db ab bd 46 38 22 3d
       -0.07231518 -0.0575543 -0.08391447 0.039604448
000030 fd 35 da bd a1 9a 72 3c 18 a3 86 3d 80 7b 0b 3e
       -0.10654829 0.014807374 0.065740764 0.1362133
000040 e5 5b 9e 3d 0c 22 eb 3b 8d ae 9c bd 59 00 84 bd
       0.07732371 0.0071756896 -0.076504804 -0.06445379
000050 ca 0e 2e 3d 48 e8 f0 bc 27 7c b0 bd 77 0d 69 3d
       0.042494573 -0.029407635 -0.0861743 0.056897607
000060 8d 96 e7 bc 62 35 aa bc a7 c4 14 bd 45 23 99 3d
       -0.02827003 -0.020777408 -0.036320355 0.0747743
000070 d6 27 c1 bc 9b de e0 bd ba 30 1a 3e 7c c0 02 3e
       -0.023578566 -0.109799586 0.1505765 0.1276874
000080 2a 4e df 3d b8 88 6f bc 05 46 56 bd 84 90 6d 3d
       0.109035805 -0.014619999 -0.05231287 0.05799915
000090 69 46 69 bd 80 e4 87 3c c9 eb 80 bd b6 40 e8 3d
       -0.056951914 0.01658845 -0.062949724 0.11340468
0000a0 11 cc 00 3e d4 fb 9c 3d de f0 c1 bc 5d dc bf bc
       0.12577845 0.0766522 -0.023674425 -0.023420507
0000b0 0e 90 a9 3d 42 24 a1 bd 08 da 0a 3e 4d 2d 15 bc
       0.082794294 -0.07868244 0.13559735 -0.009105039
0000c0 8c d1 ee 3d ed 75 cf 3d bd 65 35 bd f3 86 cb bb
       0.11661062 0.101299144 -0.04428648 -0.0062111556
0000d0 2f 68 a0 bd cf 9c e4 3d cc 38 69 bc ce 7f 88 ba
       -0.078323714 0.11162721 -0.014234733 -0.0010414065
0000e0 03 45 15 3c 04 09 d9 bc 5c f1 49 3b 8c c5 94 bd
       0.009110692 -0.026493557 0.0030814027 -0.072642416
0000f0 84 c8 5c bd 7a 3f fc 3c 53 cc c8 3d 2f bc 17 bd
       -0.053902164 0.030791987 0.09804597 -0.0370447
000100 fd fd a0 bd 5f cb 48 bc 38 34 74 bd 1c d5 c7 bd
       -0.078609444 -0.012255519 -0.059620112 -0.09757444
000110 ef a5 a0 3d b9 16 e8 3d c5 82 a5 3d c2 c1 01 3e
       0.07844149 0.11332459 0.08081583 0.12671569
000120 4d 43 ce 3d f0 3b 2b 3d 12 5b be bd 20 4d a2 bd
       0.1007143 0.041805208 -0.09294714 -0.07924867
000130 fe 83 84 bd cc c7 0a 3e 04 e4 50 3d fd 4f 80 3d
       -0.06470488 0.13552779 0.050998703 0.062652566
000140 75 ce 71 bd f3 21 04 3e d2 9b 85 3d 40 eb 8d bc
       -0.059034783 0.12903576 0.06523861 -0.01732409
000150 2a 99 0d 3e ef ba e8 3d 6a 9c 91 bd 10 0e c8 3b
       0.13827959 0.1136378 -0.07109912 0.006105192
000160 1f 7a ef bc 20 a0 ae bd dc 7a 86 bd b7 b9 95 bc
       -0.029233037 -0.08526635 -0.06566402 -0.018277032
000170 ce aa 54 3c 71 9a c7 bc 23 3d e5 3d 58 99 f5 3d
       0.012980176 -0.024365636 0.111933015 0.119921386
000180 38 ef 47 3d 15 3d 6b bd 0f bd fb 3b 2b 36 2d 3d
       0.04881212 -0.0574313 0.0076824497 0.042287987
000190 3b 6d 6a bc 2c 5c df 3d fa b7 31 bb 33 2c a9 bd
       -0.014308269 0.10906252 -0.0027117715 -0.082603835
0001a0 17 f0 00 bc 6f da 91 bc d9 ff a7 3d ec 98 f9 b9
       -0.007869742 -0.017804353 0.08203096 -0.00047606917
0001b0 b0 d4 ba 3d 97 af 00 3e 95 bd a5 bc 89 b9 8c 3d
       0.09122598 0.12566982 -0.020232001 0.068713255
0001c0 63 c9 b4 bd ca b0 d4 3d bc 8c f2 3d 92 0d ae 3d
       -0.08827474 0.10385282 0.11843249 0.08498682
0001d0 f5 41 b7 bd 0c 76 81 3d f8 52 ec 3d fb 95 bf 3d
       -0.08948127 0.06321344 0.115392625 0.093547784
0001e0 b1 0d 72 bd 94 50 53 bd 5e 3d 20 bd f8 55 5a 3b
       -0.05909509 -0.051590517 -0.039121024 0.0033315402
0001f0 ad ca 09 3e 4a 5e 89 bd 90 ec 9c 3d 18 f5 fd 3d
       0.13456221 -0.06707437 0.07662308 0.124002635
000200 94 1d bd 3d e2 49 c4 bc f3 b8 13 be 75 81 24 3d
       0.09234157 -0.023961011 -0.14426021 0.040162522
000210 d6 42 24 3c 51 4b 95 bd 53 ac 3f 3d 7e d1 f4 bd
       0.010025701 -0.07289756 0.0467952 -0.1195402
000220 09 0a ac 3d 41 dd c4 3d 6e bd 3e bd ca a7 75 bd
       0.084003516 0.09612513 -0.046567373 -0.05997447
000230 58 7a 34 bd 8d fa 86 3d 82 79 4f bc 88 4a 32 3d
       -0.04406199 0.065907575 -0.012663247 0.04352811
000240 e6 9e 75 ba 8f c0 11 be a9 8d cc bc 46 0c 13 be
       -0.0009369686 -0.14233612 -0.024969893 -0.1436015
000250 98 6f b3 3c 9e 7e 48 3d 02 ae 12 3e 98 6f 97 bd
       0.021903798 0.048948877 0.14324191 -0.07394332
000260 2d 63 7f bc 14 30 be bc e6 ba a2 bc 90 c0 93 3d
       -0.01558761 -0.023216285 -0.01986451 0.07214463
000270 e9 bc be bb 2d 8e 83 bd 52 64 e9 38 b8 23 04 3e
       -0.0058208597 -0.06423602 0.00011128992 0.1290425
000280 71 b5 62 3c 8a cf 78 bc 05 67 6c 3d 2c 1a f4 3d
       0.013837204 -0.0151862 0.057715435 0.119190544
000290 2f a0 14 bd 7d 1a 8f 3d e7 4e dd bc 16 b4 32 bd
       -0.036285575 0.06987474 -0.027015163 -0.043628775
0002a0 e5 1e 28 3c db 78 9e 3d 99 9a 62 3d e8 e1 07 bd
       0.010261272 0.07737895 0.055323217 -0.033174425
0002b0 27 04 99 3d 16 28 b3 3d 41 84 0b bd 86 b8 a2 bd
       0.07471495 0.0874788 -0.034061674 -0.07945351
0002c0 12 a9 8d bc 7e f3 ce 3d ad 4f 08 3e d6 b0 0e be
       -0.017292533 0.10105036 0.13311644 -0.13934645
0002d0 be e6 a9 bd 89 08 a6 bd 07 13 66 3d 51 07 44 3d
       -0.08295964 -0.08107097 0.05617049 0.04785854
0002e0 cc d2 d6 3c 3a 1e 64 3d bb ed 8b bd c7 7e 19 3e
       0.026223563 0.05569289 -0.06832453 0.14989768
0002f0 ee b8 f1 3d de 02 09 3e 7a 47 17 3e e2 93 7f bd
       0.11802851 0.1338 0.1477336 -0.06239689
000300 24 e5 62 bd e1 12 7d 3d 4a ff 0b bc dc cf d0 3d
       -0.055394307 0.061785582 -0.008544752 0.10195896
000310 d1 23 ae 3d d5 9b cf bb 23 8d e2 3d e1 4f b3 3d
       0.08502925 -0.0063357153 0.11062076 0.0875547
000320 40 92 17 bd 61 ab a9 3d 84 9d 3a 3d 61 04 65 3d
       -0.03700471 0.08284641 0.045560375 0.05591238
000330 64 03 10 3e 2f 9c a5 3a d8 11 64 3d 7e fa 84 3d
       0.14063793 0.0012635047 0.05568108 0.0649309
000340 5d 0c 35 3d 63 f7 ad 3d ef e5 8d 3d a7 93 8c 3d
       0.044201244 0.08494451 0.06928622 0.068641
000350 e9 64 0d 3e 14 38 8c 3c d6 25 2a 3d cd 40 ba bc
       0.13808025 0.017116584 0.04153999 -0.022735978
000360 d3 39 8c bb 8a 68 d9 3d 78 8d e9 bc 0c 54 1c 3e
       -0.004279354 0.10615642 -0.02850984 0.15266436
000370 c6 55 ad bb 2f bf 4b bd c4 f4 d3 3d 86 87 06 bc
       -0.005289766 -0.049742874 0.1034942 -0.008211022
000380 c4 c8 11 3e 15 18 d1 3d 06 2e e5 3c cc 7f 95 3d
       0.14236742 0.102096714 0.027976047 0.07299766
000390 86 96 de 3d 25 6b 97 3d 1f 10 0d bc ee 97 79 3d
       0.10868554 0.07393483 -0.008609801 0.060935907
0003a0 ec 34 a6 bd 35 2d 18 3c 38 2e c5 bc b9 6b 8d bc
       -0.08115563 0.009288122 -0.02406989 -0.01726328
0003b0 a0 73 35 3d e7 09 b4 bc 88 71 48 bc c5 66 76 bd
       0.04429972 -0.021977378 -0.012234099 -0.060156602
0003c0 d2 62 0c 3e a0 b4 4b bd 88 e4 e1 3b 24 f4 5b bd
       0.13709572 -0.049732804 0.006893698 -0.053699628
0003d0 d7 39 e7 bc 87 64 13 bd f9 51 bc bc a4 13 90 bd
       -0.028225822 -0.035984542 -0.022988306 -0.07034996
0003e0 c3 ab 36 bd cc 12 b4 3d 23 38 27 3b dc bb 56 3c
       -0.0445974 0.08792648 0.0025515638 0.013106313
0003f0 88 56 85 3d f9 bd 50 3d 78 9a c9 3d d1 af 08 bd
       0.06510645 0.050962422 0.09843916 -0.033370797
